genreclassify/music-model.pt (torch, 50979 bytes, 10 tensors)

rnn.weight_ih_l0 f4 [128, 13]
0.18874055 0.097668715 0.012086744 0.12585452 0.0033220863 -0.019028736 0.017675923 0.12987761
0.22446176 0.04386824 0.12763315 0.07276685 0.16304173 0.08021498 0.13608177 -0.036980323
0.10175293 0.009429913 -0.0704929 0.058390785 -0.021222463 -0.005349093 -0.07661106 0.09481143
-0.090070665 -0.014755286 -0.009125714 -0.14941445 0.0277871 -0.120594494 0.06331511 -0.2550344
0.11467892 -0.036751233 -0.07643481 0.23744613 0.00898046 0.13972536 0.13869224 -0.05238404
0.052512977 -0.016441986 0.07550998 0.14678362 0.084596686 -0.053007055 0.13287927 0.025190491
0.11463331 -0.13837819 -0.22971207 -0.0797223 -0.13784733 0.07113334 0.097630315 0.03093666
0.10617753 0.054295473 0.16863233 -0.09867951 0.031188238 -0.09960379 0.021613948 -0.009124676
0.07780097 -0.05017645 0.15916656 -0.08468563 -0.08980781 -0.11444967 0.15413669 0.048991516
0.16400835 -0.15101127 -0.16273212 -0.12717962 -0.10637462 0.061854344 0.061295427 0.14729677
-0.058417514 -0.14592052 0.10146854 -0.08193666 0.09309189 -0.08413062 0.08858467 -0.10553896
-0.021445516 0.13592094 -0.037878554 -0.0032393036 0.060465727 0.15062128 -0.19729745 -0.14644682
0.093344025 -0.082549274 -0.12220908 -0.24115334 -0.11017969 0.03454245 -0.032478053 -0.1284486
-0.019810144 -0.11770784 -0.1146469 -0.07507993 -0.11564053 -0.09894309 0.135452 0.1628211
0.05416491 -0.1959844 -0.16851455 -0.099864915 -0.054022938 -0.17366871 -0.05707289 -0.089758195
0.015356352 -0.04660523 0.003360375 -0.10297121 -0.10646853 -0.09258559 -0.0425627 -0.12295418
0.16365167 -0.038423173 0.12447662 0.08816508 -0.14333872 0.19282427 -0.06909806 0.10963727
-0.050082255 -0.16161524 0.1405236 -0.062271293 0.17425434 -0.03836089 0.12599836 -0.14098462
-0.0098424805 0.030517958 0.08469319 0.14778282 0.15014938 -0.11866129 0.057224825 -0.083627224
-0.0015895333 -0.113221765 0.13605535 -0.13208471 0.09211655 0.07946754 0.06884848 0.009739588
0.16029003 0.041298375 0.01124979 -0.10992131 0.07829328 0.015487274 -0.11068174 0.19582872
-0.0056498777 -0.11971283 -0.07537198 -0.022171954 0.11462847 -0.052495323 -0.032680176 -0.11041921
-0.13748235 0.115352154 0.17078401 -0.09243703 0.007237222 0.1584301 0.018741934 -0.060365297
0.13265619 0.06279673 0.0640372 -0.0046634986 0.0523045 0.07197443 -0.017414168 0.12933208
0.19873147 0.24166921 0.11129247 -0.037402567 -0.018668938 0.031548023 -0.08030917 0.090727426
-0.21473564 0.038529612 0.1703306 0.14859235 0.072261915 -0.10116647 0.01140766 0.043976113
-0.0709495 0.061913934 0.10082874 0.05807582 -0.14874741 -0.10398877 -0.009663954 0.1647013
0.01335216 -0.081551336 0.087453306 -0.08865087 -0.12908365 0.12791954 -0.073286645 -0.037117675
-0.17561379 0.11839963 0.13564488 0.06505929 -0.121700615 -0.17502807 -0.14313252 0.13286746
0.08658025 0.14976296 0.039013516 0.07647648 -0.037294067 -0.12237232 -0.2135798 -0.16667284
0.096760325 -0.26131707 0.051695187 -0.09463743 -0.11414549 -0.27082396 -0.039943084 0.0070173605
-0.05482367 0.1830874 -0.0027076073 -0.06513609 -0.06851133 -0.09505897 0.08260818 -0.20082448
00000000: 3445 413e 8906 c83d 7b07 463c 02e0 003e
00000010: 5cb7 593b 27e2 9bbc 19cd 903c a3fe 043e
00000020: 4ed9 653e 2faf 333d 44b2 023e c906 953d
00000030: 69f4 263e c047 a43d 0559 0b3e ae78 17bd
00000040: d763 d03d ec7f 1a3c 955e 90bd 2d2b 6f3d
00000050: bbda adbc 7247 afbb 42e6 9cbd 7f2c c23d
00000060: f876 b8bd 28c0 71bc 0584 15bc 1a00 19be
00000070: c6a1 e33c 3ffa f6bd 5aab 813d de93 82be
00000080: c8dc ea3d 7688 16bd db89 9cbd 1425 733e
00000090: c822 133c 2a14 0f3e 5705 0e3e a690 56bd
000000a0: d917 573d 58b1 86bc faa4 9a3d 724e 163e
000000b0: 0741 ad3d ed1d 59bd 8111 083e 4a5c ce3c
000000c0: dec4 ea3d 03b3 0dbe a439 6bbe 7245 a3bd
000000d0: da27 0dbe 5bae 913d 67f2 c73d e16e fd3c
000000e0: 9b73 d93d ee64 5e3d f4ad 2c3e 7c18 cabd
000000f0: 7a7e ff3c 12fd cbbd bc0f b13c aa7f 15bc
00000100: 1d56 9f3d d285 4dbd 8ffc 223e a96f adbd
00000110: 28ed b7bd 9764 eabd 02d6 1d3e 54ab 483d
00000120: cef1 273e b3a2 1abe 40a3 26be 603b 02be
00000130: f0da d9bd fb5a 7d3d ea10 7b3d f7d4 163e
00000140: 3447 6fbd 306c 15be bdce cf3d 68ce a7bd
00000150: f6a6 be3d ad4c acbd e16b b53d cf24 d8bd
00000160: 82ae afbc dc2e 0b3e 8b26 1bbd 7f4a 54bb
00000170: e9aa 773d 773c 1a3e 5808 4abe 28f6 15be
00000180: 272b bf3d 980f a9bd c148 fabd e7f0 76be
00000190: e4a5 e1bd 627c 0d3d b507 05bd 0888 03be
000001a0: e248 a2bc cf10 f1bd fecb eabd 82c3 99bd
000001b0: f1d4 ecbd ada2 cabd eeb3 0a3e 93ba 263e
000001c0: 06dc 5d3d 22b0 48be 148f 2cbe fa85 ccbd
000001d0: 2847 5dbd 36d6 31be 43c5 69bd 25d3 b7bd
000001e0: 3599 7b3c 20e5 3ebd bd39 5c3b 92e2 d2bd
000001f0: 2c0c dabd 849d bdbd 3a56 2ebd 67cf fbbd
00000200: 4e94 273e 9e61 1dbd 99ed fe3d e58f b43d
00000210: 63c7 12be ba73 453e 4983 8dbd 8189 e03d
00000220: 0d23 4dbd 777e 25be 6be5 0f3e 2f10 7fbd
00000230: bb6f 323e 4f20 1dbd b705 013e 465e 10be
00000240: 5b42 21bc cc00 fa3c a073 ad3d 6154 173e
00000250: c2c0 193e b104 f3bd 9464 6a3d c044 abbd
00000260: e357 d0ba d0e0 e7bd 1852 0b3e 3741 07be
00000270: 9aa7 bc3d e1bf a23d 6f00 8d3d cb92 1f3c
00000280: 1223 243e 7c28 293d 0a51 383c 6c1e e1bd
00000290: 3a58 a03d 56be 7d3c 1cad e2bd 5387 483e
000002a0: 9c22 b9bb 002c f5bd a05c 9abd f5a1 b5bc
000002b0: 55c2 ea3d 5605 57bd a6db 05bd 7723 e2bd
000002c0: 2cc8 0cbe c03d ec3d 01e2 2e3e a04f bdbd
000002d0: 3826 ed3b 803b 223e af88 993c 9a41 77bd
000002e0: 06d7 073e 929b 803d ef25 833d 43d0 98bb
000002f0: 3e3d 563d 5467 933d 28a8 8ebc a16f 043e
00000300: 4380 4b3e 2278 773e 4eed e33d 6f33 19bd
00000310: 9aef 98bc 8038 013d 2279 a4bd 4dcf b93d
00000320: a9e3 5bbe 3ad1 1d3d 256b 2e3e 9828 183e
00000330: 0efe 933d 5e30 cfbd 32e7 3a3c 4c20 343d
00000340: f94d 91bd 7799 7d3d 4c7f ce3d e9e0 6d3d
00000350: 3e51 18be 10f8 d4bd 9055 1ebc 75a7 283e
00000360: 05c3 5a3c 6304 a7bd b81a b33d 968e b5bd
00000370: 812e 04be 57fd 023e 4f17 96bd b408 18bd
00000380: 1ad4 33be 817b f23d 7ee6 0a3e ce3d 853d
00000390: 2c3e f9bd 8f3a 33be 5591 12be 680e 083e
000003a0: fc50 b13d 765b 193e a3cc 1f3d b39f 9c3d
000003b0: aac1 18bd 579e fabd aab4 5abe 49ac 2abe
000003c0: 472a c63d 5acb 85be 55be 533d 45d1 c1bd
000003d0: 1cc5 e9bd 70a9 8abe 5c9b 23bd e3f1 e53b
000003e0: c98e 60bd 437b 3b3e 1d72 31bb 1266 85bd
000003f0: ab4f 8cbd 47ae c2bd 7a2e a93d efa4 4dbe

rnn.weight_hh_l0 f4 [128, 32]
-0.13583316 -0.21295384 -0.26978055 0.22125344 0.13604118 -0.1507589 -0.17388017 -0.04844972
-0.11013359 0.1852015 0.0010631086 -0.080524914 0.028609172 -0.41042525 0.08871991 -0.14814678
-0.10989306 -0.01901613 0.01678113 0.1292238 0.051593147 0.16884269 -0.0076544588 0.19643594
-0.15864846 0.064355716 -0.05953363 -0.06300963 0.1388149 0.42995605 -0.039940104 -0.17750995
-0.033205107 0.053282812 -0.037273023 -0.04210361 -0.10938726 0.013516319 0.20590499 -0.099545635
0.08769277 0.099205665 0.14009388 -0.031551085 0.042877723 0.10976481 0.062912375 0.15914391
0.0547647 0.069948174 0.11914771 -0.10029228 -0.013323677 -0.042970736 0.121150374 -0.061422992
0.08116809 0.17504211 -0.1852534 -0.14926355 -0.16072112 0.109887354 0.20107417 -0.12705934
0.092738315 0.13993566 -0.14575627 0.19013873 0.12684207 -0.18673193 0.019695101 0.0025744487
0.14225665 -0.027553683 -0.051986277 0.044147626 0.0070062713 -0.06146925 -0.21032389 0.040315982
0.15583691 0.106823795 0.16232003 0.22893992 0.17136037 0.108904295 0.1419323 0.15525475
-0.026315734 0.20183186 -0.08024449 -0.019827547 0.17822473 0.0030132215 0.103454255 0.26533657
-0.105548546 -0.1749434 -0.1948925 -0.042937748 -0.13655701 -0.09394133 0.070180245 0.12849909
0.10512237 0.09602743 -0.0020804356 -0.11333916 -0.15849341 -0.035419293 0.2660466 0.030085342
-0.022432186 -0.119987845 -0.07687685 -0.11687022 0.070949085 -0.03419084 -0.17070895 0.07882023
-0.0038716395 -0.026933093 0.07869353 0.09506683 -0.16503696 -0.104934454 0.10422117 -0.16403894
-0.1566677 0.12510066 -0.037427455 -0.06573104 -0.042676967 -0.09180232 0.11404005 -0.059673883
-0.12074955 -0.11687212 0.071360655 -0.046435475 0.02624462 -0.052525733 -0.08531414 0.00460881
0.11459456 -0.10245631 -0.011183438 -0.10288109 -0.09317879 0.18214731 0.02198536 0.18872616
-0.030195488 -0.13036208 -0.08543845 0.15667976 -0.1357208 0.114488974 0.045291174 0.034452524
0.10292963 -0.038609874 0.095749885 -0.15641312 -0.068185896 0.14721727 0.04837772 -0.011198042
-0.0011491774 -0.12113093 0.101659186 -0.010336533 -0.015509485 0.05483377 0.12566768 -0.07827208
-0.040366646 0.119789384 0.13028757 -0.09049874 -0.32283214 0.016095681 0.038493436 0.12699114
0.11636826 -0.15535021 0.06849964 -0.10989841 0.08481008 0.11850913 0.13691312 0.15268227
-0.103922196 -0.07106663 -0.12635505 0.09914249 0.062596 -0.12211646 0.111772895 0.17210774
-0.12982154 0.117084146 0.03685331 -0.0080762785 0.21783292 0.16511405 0.15585431 0.13342574
0.105833225 0.028804272 -0.11748884 -0.057751987 -0.09845196 0.035955627 -0.08253204 -0.049122605
-0.16076921 -0.112028755 0.22258614 0.0860942 0.15791576 -0.04297523 -0.018531237 0.0035876087
0.10134221 -0.11980777 0.16252902 0.15425988 -0.2162121 -0.042084936 -0.07227024 -0.1148521
0.0695168 0.008521771 0.12351827 -0.117824145 0.1107568 -0.094187416 -0.123702444 -0.01839742
0.14715843 0.09311175 -0.13966835 0.069193654 -0.15258797 0.03766333 -0.15375179 -0.05398928
0.15664959 -0.15239985 -0.23338847 0.032198865 0.01954578 -0.06877819 0.21242288 -0.09194138
00000000: d917 0bbe 9210 5abe ad20 8abe 4390 623e
00000010: 614e 0b3e 8b60 1abe a50d 32be 3773 46bd
00000020: b88d e1bd 76a5 3d3e 0158 8b3a 3fea a4bd
00000030: c85d ea3c 4223 d2be c9b2 b53d cab3 17be
00000040: 9d0f e1bd b7c7 9bbc 9578 893c 3e53 043e
00000050: 5653 533d 19e5 2c3e 41d2 fabb 8126 493e
00000060: be74 22be eecc 833d 89d9 73bd 310b 81bd
00000070: 7e25 0e3e 3323 dc3e 3c98 23bd 2bc5 35be
00000080: 1402 08bd 143f 5a3d 99ab 18bd d674 2cbd
00000090: 6e06 e0bd 8d73 5d3c c2d8 523e 95de cbbd
000000a0: 4498 b33d 572c cb3d c574 0f3e b63b 01bd
000000b0: 8da0 2f3d 5fcc e03d 34d8 803d 9ff6 223e
000000c0: f350 603d fd40 8f3d b703 f43d 0a66 cdbd
000000d0: 8d4b 5abc 1502 30bd b01d f83d ad96 7bbd
000000e0: 753b a63d 3d3e 333e 11b3 3dbe 8bd8 18be
000000f0: 1494 24be 9f0c e13d 63e6 4d3e d81b 02be
00000100: 96ed bd3d 4b4b 0f3e 2241 15be bab3 423e
00000110: e3e2 013e a836 3fbe 9f57 a13c 15b8 283b
00000120: baab 113e 43b8 e1bc 90ef 54bd 24d4 343d
00000130: dd94 e53b 2ec7 7bbd 255f 57be 5f22 253d
00000140: b693 1f3e 6fc6 da3d 3937 263e 3a6f 6a3e
00000150: 1879 2f3e 3709 df3d b356 113e 1afb 1e3e
00000160: 1894 d7bc 03ad 4e3e 3957 a4bd 616d a2bc
00000170: 8b80 363e 7879 453b d3df d33d 32da 873e
00000180: d629 d8bd 5d24 33be e691 47be 7edf 2fbd
00000190: 9ad5 0bbe 5064 c0bd a9ba 8f3d 4495 033e
000001a0: 664a d73d 07aa c43d eb57 08bb 5d1e e8bd
000001b0: 194c 22be d213 11bd 4337 883e 8975 f63c
000001c0: b4c3 b7bc 30bc f5bd 9c71 9dbd a759 efbd
000001d0: c14d 913d b20b 0cbd 54ce 2ebe 806c a13d
000001e0: 55bb 7dbb caa2 dcbc 132a a13d 66b2 c23d
000001f0: 73ff 28be e0e7 d6bd e971 d53d d3f9 27be
00000200: 7f6d 20be 631a 003e 884d 19bd ff9d 86bd
00000210: 0bce 2ebd db02 bcbd d48d e93d 9a6c 74bd
00000220: 8a4b f7bd a65a efbd 8925 923d 2033 3ebd
00000230: f5fe d63c 3925 57bd 2eb9 aebd 8005 973b
00000240: 8db0 ea3d 9dd4 d1bd bd3a 37bc 52b3 d2bd
00000250: 85d4 bebd d384 3a3e a41a b43c 6e41 413e
00000260: 875c f7bc a37d 05be 5bfa aebd a970 203e
00000270: 65fa 0abe 3279 ea3d 3d83 393d 171e 0d3d
00000280: c5cc d23d 6325 1ebd 8418 c43d c32a 20be
00000290: 0ca5 8bbd 20c0 163e b727 463d fe77 37bc
000002a0: ff9f 96ba 7e13 f8bd b132 d03d 905a 29bc
000002b0: 7f1b 7ebc 6099 603d 07af 003e 1d4d a0bd
000002c0: 7f57 25bd 2354 f53d 1b6a 053e 6757 b9bd
000002d0: 414a a5be 17db 833c 4bab 1d3d f709 023e
000002e0: 7b52 ee3d 2014 1fbe 8a49 8c3d 6b12 e1bd
000002f0: e8b0 ad3d eab4 f23d f432 0c3e be58 1c3e
00000300: 29d5 d4bd 628b 91bd 3863 01be 380b cb3d
00000310: 5532 803d 3218 fabd 30e9 e43d 033d 303e
00000320: f0ef 04be d0c9 ef3d 7ff3 163d 5e52 04bc
00000330: 980f 5f3e a813 293e 4698 1f3e c2a0 083e
00000340: 17bf d83d f0f6 eb3c fd9d f0bd 598d 6cbd
00000350: 2ea1 c9bd 3546 133d 8f06 a9bd c934 49bd
00000360: afa0 24be 556f e5bd 9fed 633e 2852 b03d
00000370: abb4 213e cb06 30bd d2ce 97bc 161e 6b3b
00000380: 818c cf3d c75d f5bd 026e 263e 4df6 1d3e
00000390: b466 5dbe 4161 2cbd 6b02 94bd 9437 ebbd
000003a0: d35e 8e3d e69e 0b3c 26f7 fc3d c94d f1bd
000003b0: 76d4 e23d 55e5 c0bd b557 fdbd 30b6 96bc
000003c0: b3b0 163e 60b1 be3d 3805 0fbe 67b5 8d3d
000003d0: 0540 1cbe dd44 1a3d 1c71 1dbe dd23 5dbd
000003e0: c068 203e b50e 1cbe 63fd 6ebe f5e2 033d
000003f0: 791e a03c 94db 8cbd 6285 593e c34b bcbd

rnn.bias_ih_l0 f4 [128]
0.04472034 -0.18582729 0.10256731 -0.031610593 -0.19425832 0.12953031 -0.08953716 -0.1115175
0.08301478 0.04709518 0.1119156 -0.10735821 0.14650802 0.0984916 0.099192195 -0.07593368
0.030536264 0.05215706 0.13750888 -0.055832442 -0.14626843 -0.18065445 0.023526113 -0.09152726
-0.0449688 -0.14676262 0.058571167 -0.12526712 0.10192768 -0.17878537 -0.16150634 -0.006573665
-0.15118839 0.0529503 -0.04094569 -0.10873801 0.12679733 -0.053000364 0.059215665 -0.057915468
0.07112066 0.22243379 0.16309287 -0.099353254 -0.17026387 -0.015693355 0.08400472 0.087199524
0.09126994 0.07676402 0.1573157 -0.090031974 -0.095172286 -0.07332592 0.17345272 -0.12087307
0.1533024 0.03977593 0.10121931 0.17514113 0.19022192 0.16984035 -0.09146095 -0.064699486
0.09787569 0.15480882 -0.016973618 -0.04659118 -0.039448973 -0.12609924 0.08502535 -0.17960596
0.11498536 -0.0264022 -0.08896455 -0.06264467 -0.037956033 -0.14452708 0.054172046 -0.032620035
-0.079353474 -0.030106252 -0.0613289 0.07304346 -0.14400247 -0.029994726 -0.0109315 -0.15819156
0.16077967 -0.06808726 0.14248309 0.13549668 0.034578964 0.105351575 -0.12343527 -0.04343687
-0.15506911 0.020056717 0.054593273 0.17148386 -0.07652439 -0.09488187 -0.05960441 -0.0077296174
-0.06825306 -0.13042016 -0.02255451 0.19774182 0.05962175 -0.09377388 0.15230276 0.17130813
0.032469667 0.0018733133 -0.009025999 0.1606263 0.1630138 0.1338867 0.25650173 0.03287531
0.08248532 0.043890122 0.1877987 0.17586526 0.12934284 0.13574365 0.13337578 -0.14807853
00000000: ad2c 373d 8249 3ebe cf0e d23d 1c7a 01bd
00000010: a7eb 46be 98a3 043e 425f b7bd 4963 e4bd
00000020: a703 aa3d e0e6 403d 0234 e53d 9fde dbbd
00000030: 3306 163e f7b5 c93d 4725 cb3d 1e83 9bbd
00000040: 3027 fa3c a4a2 553d 21cf 0c3e 8fb0 64bd
00000050: 64c7 15be 7bfd 38be d6b9 c03c a572 bbbd
00000060: 3431 38bd f148 16be 52e8 6f3d 0646 00be
00000070: 76bf d03d 8313 37be eb61 25be e667 d7bb
00000080: 21d1 1abe 6ae2 583d abb6 27bd 09b2 debd
00000090: 29d7 013e e916 59bd 208c 723d c538 6dbd
000000a0: b5a7 913d afc5 633e d101 273e b879 cbbd
000000b0: a759 2ebe 5a8f 80bc ab0a ac3d aa95 b23d
000000c0: bceb ba3d 7436 9d3d 5e17 213e af62 b8bd
000000d0: b0e9 c2bd e62b 96bd 979d 313e 4d8c f7bd
000000e0: 4efb 1c3e 16ec 223d 124c cf3d 3258 333e
000000f0: 89c9 423e a1ea 2d3e e14f bbbd 2a81 84bd
00000100: 0d73 c83d 3486 1e3e 420c 8bbc 65d6 3ebd
00000110: 3f95 21bd 2920 01be c521 ae3d a0ea 37be
00000120: 727d eb3d 6d49 d8bc 0c33 b6bd d94b 80bd
00000130: c977 1bbd e8fe 13be 82e3 5d3d 969c 05bd
00000140: 1384 a2bd 63a1 f6bc 0334 7bbd cf97 953d
00000150: 6275 13be 80b7 f5bc 091a 33bc f8fc 21be
00000160: 6da3 243e 5571 8bbd 16e7 113e a4bf 0a3e
00000170: aca2 0d3d 91c2 d73d a1cb fcbd dcea 31bd
00000180: 70ca 1ebe fc4d a43c 329d 5f3d 7799 2f3e
00000190: d2b8 9cbd 6d51 c2bd c123 74bd bb48 fdbb
000001a0: 43c8 8bbd dd8c 05be 3cc4 b8bc d57c 4a3e
000001b0: f035 743d 850c c0bd 41f5 1b3e 666b 2f3e
000001c0: eafe 043d f789 f53a c9e1 13bc 397b 243e
000001d0: 17ed 263e 9819 093e 3254 833e 43a8 063d
000001e0: 10ee a83d 21c6 333d 4d4e 403e 0616 343e
000001f0: 7372 043e 6200 0b3e a993 083e e6a1 17be

rnn.bias_hh_l0 f4 [128]
-0.15864724 -0.054998342 -0.12499605 0.13388418 -0.0049890955 -0.030809525 -0.06851431 -0.18924388
0.037028886 0.17353216 0.107647434 0.1560999 0.17125238 0.08073869 -0.015319618 -0.1478699
0.1304871 -0.12427144 -0.13547143 0.1225251 0.113131024 -0.11277 0.11198845 -0.12261422
0.029881619 0.013915541 0.059383504 -0.09947348 -0.12647156 0.13616554 -0.02571242 -0.11899594
0.1929566 -0.027520744 -0.0075002066 0.026044691 0.14725411 -0.07461245 0.018317342 -0.069020234
-0.09164564 0.037352465 -0.0067838626 0.10236645 -0.1265818 0.21050751 0.17231594 -0.0039202645
-0.017410932 0.04359398 -0.17649888 0.17409782 0.012492805 -0.010858481 0.12005255 0.088477395
-0.061030254 -0.11948363 -0.17866671 -0.1476137 -0.019001538 -0.1371023 -0.06592946 -0.08265967
0.12299516 0.12497481 0.12817904 -0.120667115 -0.13561076 -0.0016780993 -0.040225323 0.13027637
-0.19761178 0.14402089 -0.104416616 -0.14134772 0.05181277 -0.06923505 -0.07505426 0.10845074
0.13652864 0.09842199 -0.015378206 -0.030276518 -0.09745785 0.14264007 -0.104801245 -0.1686734
0.14780849 0.0014590911 0.12101201 -0.058674373 0.16747747 -0.15093327 0.11597009 0.113582425
-0.011719014 0.24490358 0.005014872 -0.12209511 0.105824575 -0.16087992 0.045069985 -0.15138598
-0.0055852635 -0.043173272 -0.05279424 -0.14624114 -0.05863323 -0.1839863 -0.113662235 -0.13552926
-0.19018191 -0.039384842 0.16937922 -0.07856045 -0.06644043 -0.144059 0.29456565 0.060446084
-0.11427481 0.10622904 -0.09264554 -0.04671438 0.1431137 0.11222387 -0.1425561 -0.11357626
00000000: 6c74 22be f145 61bd eefd ffbd ef18 093e
00000010: 917b a3bb 4264 fcbc 3b51 8cbd 26c9 41be
00000020: 9aab 173d 6ab2 313e 4276 dc3d a7d8 1f3e
00000030: c95c 2f3e 545a a53d 23ff 7abc 356b 17be
00000040: 699e 053e 0682 febd 06b9 0abe 71ee fa3d
00000050: 3db1 e73d f5f3 e6bd 335a e53d 2a1d fbbd
00000060: 4cca f43c 02fe 633c 1e3c 733d c0b8 cbbd
00000070: c381 01be fb6e 0b3e daa2 d2bc 25b4 f3bd
00000080: 6a96 453e 2f73 e1bc 4bc4 f5bb ad5b d53c
00000090: c8c9 163e 6ace 98bd 400e 963c 7b5a 8dbd
000000a0: b6b0 bbbd e6fe 183d 2a4b debb 80a5 d13d
000000b0: a99e 01be 488f 573e 9773 303e 9075 80bb
000000c0: 5fa1 8ebc 9a8f 323d 1fbc 34be b346 323e
000000d0: 9fae 4c3c c5e7 31bc 1dde f53d a333 b53d
000000e0: dcfa 79bd d5b3 f4bd 68f4 36be 0c28 17be
000000f0: 1da9 9bbc 8c64 0cbe 0606 87bd 7949 a9bd
00000100: e3e4 fb3d cbf2 ff3d 5e41 033e 5220 f7bd
00000110: 8cdd 0abe abf3 dbba 4fc3 24bd 2b67 053e
00000120: be5a 4abe 367a 133e 61d8 d5bd 75bd 10be
00000130: a139 543d 1bcb 8dbd 0cb6 99bd 6c1b de3d
00000140: 2ace 0b3e 7891 c93d dff4 7bbc 7606 f8bc
00000150: fb97 c7bd 3d10 123e 09a2 d6bd b8b8 2cbe
00000160: 1c5b 173e f93e bf3a 25d5 f73d 8a54 70bd
00000170: 377f 2b3e 408e 1abe ba81 ed3d e79d e83d
00000180: 1b01 40bc 01c8 7a3e cc53 a43b 000d fabd
00000190: 8eba d83d b5bd 24be 4e9b 383d ed04 1bbe
000001a0: 9604 b7bb 75d6 30bd c63e 58bd 3dc0 15be
000001b0: 6629 70bd e866 3cbe bfc7 e8bd 2fc8 0abe
000001c0: 0cbf 42be 0052 21bd bf71 2d3e 4de4 a0bd
000001d0: ec11 88bd 3484 13be 4fd1 963e 5096 773d
000001e0: e908 eabd 9c8e d93d f2bc bdbd 9457 3fbd
000001f0: 668c 123e a1d5 e53d 3afa 11be ac9a e8bd

rnn.weight_ih_l0_reverse f4 [128, 13]
0.02612573 0.051468734 -0.10644168 0.11496923 0.045742877 -0.15889908 0.10806664 -0.11330376
0.09675243 -0.17601234 0.004432188 -0.059388977 -0.14174071 -0.0063306494 0.006185843 -0.17790316
0.018878896 0.01050387 -0.02534347 -0.1821925 -0.009596997 0.056027308 0.06051191 -0.07672715
-0.15565613 0.041105907 0.021805331 0.049046017 -0.12675376 0.048419055 -0.29750094 0.03487625
-0.055920374 -0.012442734 0.037774883 -0.016683536 0.03896228 -0.13924724 -0.100969575 0.14133444
0.17239517 0.21904673 0.050326336 -0.035805628 0.12759472 0.08651477 -0.21980236 -0.09219272
-0.19637063 -0.069991976 0.12750451 -0.06332452 -0.08269122 -0.12781799 0.14293075 0.13361906
0.06905168 -0.119662315 0.18765156 0.23029509 -0.06608824 -0.10139504 0.18628678 -0.10682469
0.13552886 -0.030356158 -0.06629852 -0.11634313 -0.16724367 -0.009723608 -0.058397423 -0.14396258
0.09743846 0.033147678 -0.12865259 -0.20989041 -0.114109226 -0.034408215 0.028851036 -0.1441933
0.12552688 0.22060998 0.09017516 -0.23283534 0.0048586046 -0.04965155 -0.070323355 -0.06616939
-0.042640664 0.0111137945 -0.036346026 0.045913618 -0.06844781 0.07283159 0.23786512 0.08384517
-0.051602308 -0.07275789 0.08742263 -0.17021297 -0.123162255 0.0720209 0.0745086 0.050451692
-0.11354113 -0.14411196 -0.09933329 -0.11888533 -0.14857863 -0.12924324 -0.069054164 -0.09890219
-0.23564267 -0.044628557 -0.03901025 -0.114267 -0.00070788705 -0.11199479 -0.17089224 0.06858406
-0.02997366 -0.05624099 -0.1093219 -0.05016061 0.16520588 -0.15140946 -0.10724369 -0.050952427
-0.1209561 0.027341122 -0.007247733 0.12915324 -0.21926357 0.11209576 0.058297575 0.06767006
-0.048460215 0.20843014 -0.097733445 0.15151344 0.048525684 0.006968149 0.118356496 0.0072965077
0.047825545 -0.0044754036 -0.15846314 0.014649275 0.035465326 0.07037267 -0.03700301 -0.1393669
-0.0708265 -0.09838905 -0.18027976 0.26416397 0.008887924 0.04022682 0.18952335 0.13988154
-0.08614872 0.06235729 0.10158266 0.16634005 -0.0017985099 0.121009395 -0.2486783 -0.06082373
-0.123266324 0.08414323 0.17520559 -0.22079045 -0.10403104 -0.22571343 -0.11790172 0.14928044
-0.2094318 -0.19006905 -0.075629406 0.051983774 0.0053378153 -0.1973944 0.2063605 0.09143787
0.008473538 0.094263025 -0.0151266325 0.02955808 0.0046015987 0.1782546 0.030336708 0.093613915
-0.055006225 -0.05268575 0.025393292 -0.08324302 -0.11344303 -0.07817042 -0.07017192 -0.14224365
0.18656182 0.11136229 -0.13433446 -0.16797233 -0.0046255016 0.13451873 0.19987369 -0.07121674
0.046964213 -0.044612803 0.019637872 0.06917684 -0.14402516 -0.050177623 -0.051548615 0.17995723
-0.15838633 -0.08328717 -0.021712126 0.09881858 -0.10809494 -0.10643076 0.1156605 -0.1854857
-0.09308953 0.04565623 -0.08030377 -0.07572432 -0.1919819 0.0813963 0.029868117 0.09499421
0.02945271 -0.101637475 -0.050076265 0.053441532 -0.14869186 -0.11314173 0.060794402 -0.16238904
-0.16016291 -0.1823547 -0.044038385 -0.0026799706 -0.1981714 -0.15458593 0.04126818 -0.05797954
0.09682542 0.009220153 -0.060405757 -0.030763429 -0.08053144 0.08723343 0.14022562 -0.005521835
00000000: a005 d63c e1d0 523d 18fe d9bd fd74 eb3d
00000010: e25c 3b3d 71b6 22be 0b52 dd3d cd0b e8bd
00000020: 2326 c63d 943c 34be e33b 913b db41 73bd
00000030: 7a24 11be 5671 cfbb 9db2 ca3b 3f2c 36be
00000040: eaa7 9a3c 6d18 2c3c 1c9d cfbc ac90 3abe
00000050: b93c 1dbc e47c 653d 56db 773d 2023 9dbd
00000060: 5264 1fbe ab5e 283d 18a1 b23c 7ae4 483d
00000070: bdcb 01be 0f53 463d 0b52 98be 66da 0e3d
00000080: c30c 65bd 9cdc 4bbc d6b9 1a3d e9ab 88bc
00000090: e996 1f3d d496 0ebe 23c9 cebd fab9 103e
000000a0: 5c88 303e c94d 603e fd22 4e3d eca8 12bd
000000b0: 31a8 023e a82e b13d df13 61be 89cf bcbd
000000c0: 6215 49be f457 8fbd 8b90 023e 49b0 81bd
000000d0: 045a a9bd b8e2 02be 705c 123e 6fd3 083e
000000e0: f86a 8d3d 8411 f5bd bb27 403e 7ad2 6b3e
000000f0: 4559 87bd 34a8 cfbd f6c1 3e3e e7c6 dabd
00000100: 14c8 0a3e 7aad f8bc 85c7 87bd 4f45 eebd
00000110: ed41 2bbe c54f 1fbc 2332 6fbd ed6a 13be
00000120: d18d c73d dcc5 073d 81bd 03be 83ed 56be
00000130: 19b2 e9bd a1ef 0cbd 0259 ec3c 69a7 13be
00000140: 1e8a 003e 95e7 613e c1ad b83d 636c 6ebe
00000150: ee34 9f3b 6c5f 4bbd b105 90bd d183 87bd
00000160: faa7 2ebd a216 363c 92df 14bd eb0f 3c3d
00000170: 5e2e 8cbd bb28 953d ea92 733e 04b7 ab3d
00000180: f15c 53bd 1702 95bd a30a b33d 4f4c 2ebe
00000190: 7e3c fcbd b27f 933d f797 983d 6fa6 4e3d
000001a0: 4188 e8bd 1692 13be 406f cbbd 277a f3bd
000001b0: ff24 18be 5758 04be 456c 8dbd 3b8d cabd
000001c0: 504c 71be 6fcc 36bd 36c9 1fbd d104 eabd
000001d0: 7f91 39ba 865d e5bd 60fe 2ebe cd75 8c3d
000001e0: 528b f5bc f45c 66bd 29e4 dfbd 3675 4dbd
000001f0: bb2b 293e 150b 1bbe 94a2 dbbd 7eb3 50bd
00000200: d5b7 f7bd 7dfa df3c 647e edbb bf40 043e
00000210: a186 60be 7692 e53d 70c9 6e3d 9a96 8a3d
00000220: 387e 46bd b66e 553e 7928 c8bd 5726 1b3e
00000230: dec2 463d 1255 e43b e464 f23d 8b17 ef3b
00000240: b8e4 433d 68a6 92bb 2944 22be 8303 703c
00000250: 1744 113d 8c1f 903d 7890 17bd 32b6 0ebe
00000260: 7c0d 91bd 3380 c9bd 429b 38be 8040 873e
00000270: a89e 113c e1c4 243d 6912 423e 1b3d 0f3e
00000280: bd6e b0bd 5c6a 7f3d 920a d03d 0c55 2a3e
00000290: fabb ebba c6d3 f73d 86a5 7ebe 4e22 79bd
000002a0: 0e73 fcbd 4953 ac3d 1869 333e e416 62be
000002b0: 3a0e d5bd 6c21 67be 7576 f1bd f9dc 183e
000002c0: 4a75 56be 76a1 42be 97e3 9abd f0ec 543d
000002d0: d7e8 ae3b c221 4abe 2b50 533e c743 bb3d
000002e0: 98d4 0a3c f90c c13d b2d5 77bc c923 f23c
000002f0: 02c9 963b 6088 363e b084 f83c a7b8 bf3d
00000300: 354e 61bd 03cd 57bd 9805 d03c 517b aabd
00000310: d254 e8bd d017 a0bd 4cb6 8fbd 52a8 11be
00000320: 100a 3f3e ea11 e43d f98e 09be f000 2cbe
00000330: 8591 97bb 47bf 093e b0ab 4c3e 15da 91bd
00000340: 8c5d 403d eabb 36bd 9adf a03c 96ac 8d3d
00000350: 557b 13be 0d87 4dbd a424 53bd b546 383e
00000360: 0730 22be 7792 aabd a1dd b1bc 6561 ca3d
00000370: e160 ddbd 5ff8 d9bd 6adf ec3d f7ef 3dbe
00000380: b9a5 bebd 0702 3b3d 4e76 a4bd 5a15 9bbd
00000390: e796 44be 1ab3 a63d fbad f43c 538c c23d
000003a0: cf46 f13c 4f27 d0bd c51c 4dbd 82e5 5a3d
000003b0: ae42 18be dab6 e7bd 8d03 793d 5049 26be
000003c0: bf01 24be 31bb 3abe 9861 34bd 72a2 2fbb
000003d0: 72ed 4abe c64b 1ebe d308 293d f47b 6dbd
000003e0: 684c c63d 2010 173c 076c 77bd 9603 fcbc
000003f0: abed a4bd 71a7 b23d 4e97 0f3e 82f0 b4bb

rnn.weight_hh_l0_reverse f4 [128, 32]
-0.14942421 -0.16267246 -0.022928098 0.11534093 0.049861003 0.13883802 -0.081763536 0.20308217
-0.07784416 0.045861106 -0.20255432 -0.039127074 0.0514486 -0.12411903 0.16351517 0.027478116
0.20305161 -0.11578209 0.013880059 -0.05673421 0.13464656 -0.07609661 0.16461784 -0.121842586
0.14554247 -0.16593331 -0.1259989 -0.10052385 -0.051084638 0.0044482704 0.055501603 0.15852991
0.069766104 -0.095634736 0.2090633 -0.00196986 -0.11547934 0.0962392 -0.33879578 0.24516018
0.07072271 0.11380446 -0.0060441075 -0.14429373 -0.026415257 -0.18841368 -0.2720509 -0.08042454
-0.107238606 0.06785932 0.08670825 -0.1742115 0.12111082 -0.091078654 -0.060015984 0.20053412
-0.056999788 -0.10130458 0.13371706 0.117694855 -0.18007147 0.1255528 0.014067551 -0.028172778
-0.041468047 -0.11252581 -0.13531226 -0.3362277 -0.0002027657 -0.23128636 -0.19783518 -0.11585271
-0.10784976 0.19117136 -0.3586339 0.24918899 -0.21101707 -0.064093664 -0.3008872 -0.19358808
-0.038482357 0.2916294 0.0999801 -0.12025545 -0.007370737 0.1246735 -0.0038803585 -0.30073312
0.011149635 0.04007813 -0.11576447 0.19592753 0.08444359 -0.05013366 0.060906313 -0.16031197
-0.0359439 -0.18542054 -0.2192177 -0.10162497 0.07747849 -0.01424133 -0.024871284 0.11216071
0.10324099 0.14858878 -0.15335245 0.36564916 -0.06750544 0.10196592 -0.033170003 0.12307452
0.014307191 0.006939156 -0.24733092 -0.15436636 -0.05210815 0.37279296 0.049834326 0.10548614
-0.055079576 0.007633152 -0.26136455 -0.04203506 -0.27920863 -0.2946901 -0.06770655 -0.16098447
-0.17618033 0.1720948 0.23636794 -0.13468803 0.046615027 -0.05324148 0.19840263 0.11353491
0.14462285 -0.1422945 -0.08910147 -0.085156254 -0.16798761 -0.13990992 -0.19471988 -0.2104246
0.11183266 -0.036655515 -0.044917878 -0.051720854 -0.033400483 -0.23127393 -0.11704611 0.16521652
-0.0888602 0.18553092 -0.03255989 -0.014333048 0.2163979 -0.11203363 -0.10154128 0.1014136
-0.10274957 0.14299923 0.055532135 0.18119451 -0.026822086 -0.0086378 -0.28081617 0.0053950828
-0.019637892 0.1086669 0.12405139 -0.027487895 -0.046175193 0.010238075 0.013590568 -0.017116178
-0.14161399 -0.089569636 0.088039726 0.15913804 -0.053577613 0.08077402 0.04929039 0.099795915
-0.06691379 -0.13332686 -0.13065857 0.03098895 0.13847655 -0.050216217 0.13909528 0.08385052
0.1777656 -0.0026154006 -0.22103722 -0.14903793 -0.0014203419 0.094864026 0.0120769935 -0.16681524
0.040046547 0.06277435 0.21716724 -0.014157719 -0.025008144 0.07393652 0.06359211 0.06945567
-0.11714066 -0.04622025 -0.021781724 -0.031049352 -0.18713494 0.19503935 -0.056999844 0.06961432
-0.044320505 -0.0013651722 0.6220252 0.10137648 0.025805522 -0.24451898 0.08719127 0.08951185
0.058476817 0.118975066 -0.035295464 0.06265051 -0.096288964 -0.015770014 -0.037749197 -0.0779235
-0.1581046 -0.122163996 -0.01741275 -0.02350736 0.117313296 -0.0106553165 -0.254789 0.02049266
0.123734504 0.043282997 0.07829853 0.04835692 -0.09695292 -0.153188 0.015064594 -0.102713056
0.27911168 -0.08846983 0.14308237 -0.17272533 0.001680844 -0.0329167 -0.09920143 0.04077684
00000000: a902 19be 9c93 26be b5d3 bbbc de37 ec3d
00000010: 0d3b 4c3d 8e2b 0e3e a473 a7bd c6f4 4f3e
00000020: c26c 9fbd dbd8 3b3d 666a 4fbe b643 20bd
00000030: c4bb 523d 1e32 febd 8570 273e c919 e13c
00000040: c3ec 4f3e 291f edbd 3069 633c 2262 68bd
00000050: cae0 093e 8ad8 9bbd 9491 283e 9b88 f9bd
00000060: 1609 153e 6cea 29be db05 01be 73df cdbd
00000070: 203e 51bd ccc2 913b a655 633d aa55 223e
00000080: 88e1 8e3d 25dc c3bd b114 563e c418 01bb
00000090: 6f80 ecbd 0f19 c53d a476 adbe 450b 7b3e
000000a0: 11d7 903d 5012 e93d a60d c6bb bcc1 13be
000000b0: cf64 d8bc 84ef 40be 414a 8bbe 9fb5 a4bd
000000c0: ea9f dbbd d4f9 8a3d 1894 b13d 8064 32be
000000d0: f308 f83d 7287 babd 52d3 75bd d158 4d3e
000000e0: 9c78 69bd c778 cfbd 20ed 083e 000a f13d
000000f0: a864 38be ea90 003e 967b 663c 99ca e6bc
00000100: 66da 29bd ef73 e6bd 4c8f 0abe 0926 acbe
00000110: 819d 54b9 55d6 6cbe 4e95 4abe 3044 edbd
00000120: 56e0 dcbd 6dc2 433e dd9e b7be 662b 7f3e
00000130: dc14 58be 8a43 83bd e30d 9abe f43b 46be
00000140: ad9f 1dbd 7350 953e 5ec2 cc3d 7d48 f6bd
00000150: 3986 f1bb d254 ff3d 9d4d 7ebb b1f9 99be
00000160: f5ac 363c f728 243d ec15 edbd 3aa1 483e
00000170: c3f0 ac3d f458 4dbd e678 793d d228 24be
00000180: e939 13bd e2de 3dbe 9b7a 60be c120 d0bd
00000190: 0bad 9e3d 7854 69bc ddbe cbbc 84b4 e53d
000001a0: 0370 d33d a827 183e 6d08 1dbe 5e36 bb3e
000001b0: 4b40 8abd 82d3 d03d 45dd 07bd 7e0e fc3d
000001c0: b568 6a3c dc61 e33b 5144 7dbe 3712 1ebe
000001d0: 5b6f 55bd b8de be3e 141f 4c3d 1e09 d83d
000001e0: 1f9b 61bd 851f fa3b 93d1 85be f42c 2cbd
000001f0: 6ff4 8ebe 9fe1 96be bba9 8abd 1dd9 24be
00000200: 9e68 34be 9f39 303e 700a 723e a9eb 09be
00000210: 66ef 3e3d bd13 5abd 0f2a 4b3e fe84 e83d
00000220: 0318 143e a6b5 11be d57a b6bd 6766 aebd
00000230: f204 2cbe 8c44 0fbe a664 47be 8c79 57be
00000240: 8608 e53d 1824 16bd cffb 37bd 3fd9 53bd
00000250: f2ce 08bd 13d3 6cbe dfb5 efbd 852e 293e
00000260: 56fc b5bd d1fb 3d3e 855d 05bd 29d5 6abc
00000270: 6997 5d3e e371 e5bd e0f4 cfbd efb1 cf3d
00000280: 5e6e d2bd 646e 123e aa75 633d 0e8b 393e
00000290: feb9 dbbc 8f85 0dbc 23c7 8fbe 3cc9 b03b
000002a0: a5df a0bc c08c de3d a80e fe3d 4b2e e1bc
000002b0: 3322 3dbd 99bd 273c f9aa 5e3c 3a37 8cbc
000002c0: 4203 11be 4970 b7bd 2c4e b43d 15f5 223e
000002d0: 3374 5bbd d96c a53d b8e4 493d cd61 cc3d
000002e0: 190a 89bd d686 08be 5ccb 05be 8adc fd3c
000002f0: cccc 0d3e 85af 4dbd fe6e 0e3e d2b9 ab3d
00000300: 2f08 363e 2467 2bbb 9557 62be 669d 18be
00000310: c42a baba 1248 c23d 95de 453c 9dd1 2abe
00000320: d907 243d d78f 803d 1761 5e3e c7f5 67bc
00000330: e1dd ccbc 086c 973d 953c 823d c63e 8e3d
00000340: 71e7 efbd 7251 3dbd 966f b2bc 365b febc
00000350: 4da0 3fbe 65b8 473e ab78 69bd f491 8e3d
00000360: 6b89 35bd 94ef b2ba 0b3d 1f3f 799e cf3d
00000370: 1a66 d33c 2f63 7abe 5691 b23d fd51 b73d
00000380: 6385 6f3d 33a9 f33d fa91 10bd e94e 803d
00000390: 2633 c5bd 1e30 81bc e79e 1abd 5b96 9fbd
000003a0: 2ce6 21be 1e31 fabd 2fa5 8ebc 8292 c0bc
000003b0: f441 f03d a393 2ebc b473 82be 39e0 a73c
000003c0: 8468 fd3d 8349 313d fb5a a03d e811 463d
000003d0: 418f c6bd 51dd 1cbe 7dd1 763c 395b d2bd
000003e0: bae7 8e3e ac2f b5bd 2f84 123e e9de 30be
000003f0: c44f dc3a a9d3 06bd 1f2a cbbd 9e05 273d

rnn.bias_ih_l0_reverse f4 [128]
-0.18442377 -0.022901041 0.083582185 -0.049906515 0.13082682 -0.19355021 -0.06436695 -0.080768816
-0.16382174 -0.02767286 -0.105740786 0.12789525 0.11055663 0.10034649 0.12541506 -0.16613856
-0.018954067 0.12699395 0.10501061 0.027950862 0.09112045 0.023216972 0.011903242 -0.05059489
0.08124187 -0.14296946 0.22010475 -0.14048289 -0.025906688 0.09354795 -0.11922727 -0.09300159
-0.009405064 -0.16701576 -0.008470249 -0.023122152 -0.039460838 0.018258758 -0.07583403 0.036400367
-0.023153104 -0.17389865 -0.1314164 0.14832795 -0.14957646 -0.034304224 -0.054505773 0.17638396
0.16524512 0.10498286 -0.09500635 -0.15598434 -0.03617551 0.11820257 0.014958031 -0.022524748
-0.15954559 0.1493157 0.07098972 0.17051756 -0.05247573 0.037267 0.16425097 -0.17182659
-0.16696712 -0.16835079 -0.09306418 -0.023722757 0.08867112 -0.08813072 0.17820488 0.08504689
0.118915014 -0.17289017 0.06885907 0.11890056 0.14736344 -0.1576055 0.0069613284 -0.08969197
-0.05578939 0.048123136 -0.009868903 0.07676917 -0.13255495 -0.12955156 0.029601226 -0.064531006
0.020090332 -0.11808773 0.15063271 -0.009805538 0.09867904 0.009524538 0.017269563 0.16776733
-0.098830394 0.158506 -0.068181306 -0.046884976 -0.100368634 0.006189093 -0.046620253 0.08009474
-0.010977562 0.1950017 0.26794025 0.13489881 -0.14887863 0.15440197 -0.07750429 0.10784765
-0.07173863 0.13446482 -0.033262633 0.047138687 0.04829824 0.09833988 0.16937181 0.01712802
-0.100004315 0.053738352 0.008303198 0.011460589 0.11385353 0.12438201 0.13013402 -0.025085794
00000000: 96d9 3cbe f79a bbbc 232d ab3d c66a 4cbd
00000010: 77f7 053e 0732 46be d2d2 83bd 1f6a a5bd
00000020: e3c0 27be 32b2 e2bc a08e d8bd f9f6 023e
00000030: 846b e23d 7682 cd3d ce6c 003e 3a20 2abe
00000040: 8f45 9bbc b40a 023e cd0f d73d 35f9 e43c
00000050: 5c9d ba3d 8531 be3c d105 433c 963c 4fbd
00000060: 2362 a63d 9666 12be 2463 613e bfda 0fbe
00000070: 433a d4bc 1196 bf3d 6d2d f4bd 9e77 bebd
00000080: b317 1abc 2e06 2bbe cdc6 0abc ab6a bdbc
00000090: b0a1 21bd 6493 953c df4e 9bbd 8d18 153d
000000a0: 94ab bdbc 7d12 32be 0592 06be 48e3 173e
000000b0: 922a 19be 9682 0cbd 7241 5fbd ff9d 343e
000000c0: 0436 293e 4101 d73d b092 c2bd 5cba 1fbe
000000d0: c62c 14bd 3014 f23d 8712 753c d285 b8bc
000000e0: eb5f 23be 37e6 183e 0f63 913d 289c 2e3e
000000f0: cbf0 56bd 48a5 183d 6831 283e 4ff3 2fbe
00000100: 6ef9 2abe 2664 2cbe 6f98 bebd 3a56 c2bc
00000110: 3499 b53d e17d b4bd 577b 363e 102d ae3d
00000120: b789 f33d 1f0a 31be fc05 8d3d 2382 f33d
00000130: 71e6 163e 5663 21be db1b e43b 6cb0 b7bd
00000140: 6a83 64bd c41c 453d 2eb1 21bc 2839 9d3d
00000150: 7cbc 07be 2aa9 04be 457e f23c d528 84bd
00000160: 7b94 a43c fbd7 f1bd 763f 1a3e 68a7 20bc
00000170: 3d18 ca3d cf0c 1c3c e678 8d3c 33cb 2b3e
00000180: 9767 cabd 664f 223e a4a2 8bbd 760a 40bd
00000190: 128e cdbd e0cd ca3b e1f4 3ebd b608 a43d
000001a0: 3bdb 33bc 87ae 473e 772f 893e ea22 0a3e
000001b0: a473 18be 8d1b 1e3e 92ba 9ebd 3bdf dc3d
000001c0: b4eb 92bd 25b1 093e 663e 08bd 7f14 413d
000001d0: 60d4 453d 6b66 c93d ce6f 2d3e 1050 8c3c
000001e0: 10cf ccbd bf1c 5c3d 230a 083c 32c5 3b3c
000001f0: 0a2c e93d ffbb fe3d da41 053e b980 cdbc

rnn.bias_hh_l0_reverse f4 [128]
-0.09537105 0.12482366 0.1829783 -0.09377284 -0.046908032 -0.18222581 0.04019313 -0.105928496
-0.15074977 -0.115739144 -0.048889097 0.0460027 -0.14274329 -0.050692596 0.008689653 0.02741894
0.08417995 -0.15935469 -0.033933386 0.057063967 -0.16525234 -0.13540173 0.057113566 0.008940105
0.15096958 0.054126963 0.14073971 -0.11848358 0.06794073 -0.0605393 -0.05966395 -0.036261458
0.11818855 -0.120139636 -0.057726122 -0.065082476 0.022675801 0.04681997 0.019324882 0.15859503
-0.13980007 0.128743 0.047152895 0.1360497 -0.1490692 0.12957223 0.14798254 0.114167824
0.12855071 -0.06497142 -0.04822363 0.0049134465 0.034215514 -0.15900855 -0.040076282 -0.0931656
-0.121717855 -0.06630919 -0.019581584 0.08945252 0.22699183 -0.043887034 -0.031050531 0.06127438
0.043883882 0.16789962 0.02485581 0.011573328 -0.13378352 0.03666342 0.0949652 0.0024026781
-0.006196472 -0.0526512 0.035129286 0.0074142083 -0.017492058 -0.15729153 0.13440438 -0.10012026
0.0630964 0.070457384 0.083365016 -0.019348847 -0.0059343805 0.04457864 -0.14672534 -0.123393886
0.113014884 0.16938835 0.131729 0.09986003 -0.060201112 0.106550686 -0.09132453 0.079231925
0.13597772 -0.048919797 -0.12541719 -0.16693589 -0.047475792 -0.025911951 0.288869 0.06310993
-0.012529307 0.021860223 0.04567106 0.0666935 0.08827726 -0.028117193 0.112488106 0.1825558
0.02481924 -0.09906091 0.09999188 -0.17823568 0.07932734 0.0104971165 0.0091930535 -0.0439183
0.06487453 -0.113134995 0.0669887 0.16728054 0.09166335 -0.15145227 0.13549751 0.11014394
00000000: e651 c3bd 8ca3 ff3d aa5e 3b3e fa0b c0bd
00000010: a322 40bd 6799 3abe 8da1 243d 0af1 d8bd
00000020: 265e 1abe a508 edbd ef3f 48bd 546d 3c3d
00000030: 4c2b 12be 0aa3 4fbd 0c5f 0e3c af9d e03c
00000040: 8a66 ac3d e02d 23be bcfd 0abd e8bb 693d
00000050: e937 29be c0a6 0abe eaef 693d 8579 123c
00000060: c597 1a3e 3cb4 5d3d 121e 103e 85a7 f2bd
00000070: 8224 8b3d 0ff8 77bd 3062 74bd e586 14bd
00000080: d70c f23d c50b f6bd 3a72 6cbd f649 85bd
00000090: 9ac2 b93c 4cc6 3f3d 374f 9e3c bc66 223e
000000a0: c027 0fbe 34d5 033e 6523 413d 9d50 0b3e
000000b0: 99a5 18be 95ae 043e bc88 173e d2d0 e93d
000000c0: cca2 033e bc0f 85bd 2486 45bd fa00 a13b
000000d0: 9125 0c3d 23d3 22be 0727 24bd 9bcd bebd
000000e0: 3647 f9bd 1dcd 87bd 8f69 a0bc e232 b73d
000000f0: 8c70 683e e4c2 33bd af5d febc d8fa 7a3d
00000100: 96bf 333d e1ed 2b3e 699e cb3c 0e9e 3d3c
00000110: 8cfe 08be 622c 163d 1d7d c23d 4076 1d3b
00000120: c60b cbbb c9a8 57bd bae3 0f3d e3f2 f23b
00000130: 814b 8fbc 0811 21be 4da1 093e da0b cdbd
00000140: af38 813d f64b 903d 47bb aa3d 7981 9ebc
00000150: 3175 c2bb 1898 363d 2b3f 16be efb5 fcbd
00000160: 5974 e73d 2474 2d3e f8e3 063e 6a83 cc3d
00000170: 7195 76bd 3f37 da3d 5b08 bbbd 5944 a23d
00000180: be3d 0b3e 2060 48bd 5d6d 00be 3ef1 2abe
00000190: fa75 42bd 4d45 d4bc a3e6 933e c73f 813d
000001a0: b947 4dbc 3614 b33c 9411 3b3d 9a96 883d
000001b0: b5ca b43d 0756 e6bc 2a60 e63d e8ef 3a3e
000001c0: b851 cb3c 72e0 cabd 8bc8 cc3d 6a83 36be
000001d0: 5f76 a23d 19fc 2b3c 769e 163c ade3 33bd
000001e0: f0dc 843d 52b3 e7bd 5f31 893d 974b 2b3e
000001f0: ffb9 bb3d 4e16 1bbe dcbf 0a3e 2593 e13d

fc.weight f4 [4, 64]
0.2986949 -0.29969797 -0.2970219 -0.019110452 0.24716707 -0.016725931 0.18490618 0.011623137
-0.20405157 -0.13025281 0.08159069 -0.12429348 -0.28737444 -0.19476302 0.22806711 0.059619848
-0.06235736 0.057369187 -0.24837813 -0.29211184 0.3352337 0.04468803 0.19184245 -0.062824786
-0.19656324 -0.1776729 0.26397502 0.06072001 0.27932006 0.33363634 -0.1177205 -0.33118483
0.07751019 0.012272153 0.45612147 0.043953218 0.15201695 -0.07129652 -0.07963113 0.29728305
0.047814395 -0.23418465 -0.016376868 -0.12903251 0.06142613 -0.009060977 0.43871182 0.051725402
0.3933363 -0.123402245 -0.16679431 -0.120227106 -0.010387572 -0.113198906 -0.14811076 0.32358855
-0.15158214 -0.10472959 -0.2944925 -0.10632573 -0.38772854 0.02287727 0.030331088 -0.07349112
-0.12469256 -0.3600744 0.31230077 -0.058605105 -0.096489914 0.17295551 -0.14142986 0.16955614
-0.38833547 -0.058474865 0.29028803 0.12855752 -0.2589246 0.07074689 -0.30707628 -0.0020177076
0.28481254 -0.075157866 0.1831179 0.36337498 0.029247466 -0.1911656 0.2920057 0.44768453
0.0014653816 -0.07662536 -0.16258651 -0.06442888 -0.08429886 -0.10051079 -0.20154287 0.24700013
-0.046208862 -0.079485014 -0.2020235 -0.03661316 -0.18324016 -0.0990202 -0.47581935 -0.013325932
0.13733296 0.12684129 -0.15411961 0.36053118 -0.37278947 -0.2198488 -0.4629485 -0.13672204
0.084352925 0.104709 0.17686166 0.0053804237 0.04823303 0.16074818 0.06879093 -0.050088793
0.1946468 0.04676141 -0.3479202 0.15482017 -0.082784496 0.26033628 -0.02311215 -0.0214442
-0.124113455 0.07140285 -0.33396286 -0.0733764 -0.06662328 -0.28854585 -0.26906398 -0.10113531
0.15026982 0.0022299306 -0.3573828 -0.1879475 0.27331737 -0.26750576 -0.14305851 0.044957597
0.019002365 0.12311441 0.11028689 0.21982384 -0.50275815 0.15274017 -0.18128793 -0.14556809
0.19654891 -0.15933643 -0.20566437 0.12464724 -0.044512898 -0.028437402 0.4640936 0.14642079
-0.061774537 0.023311276 0.09244049 -0.08539639 0.26850846 0.09331818 0.33674872 0.5333122
-0.0088746585 -0.05117912 -0.13687083 0.15427639 0.2802331 -0.20571469 -0.067545146 0.1797084
-0.18542938 -0.023067525 -0.07031725 0.104244016 -0.087797895 0.40550986 0.2735736 0.019573791
-0.25403497 0.02465027 0.27498043 -0.07124055 0.23579673 -0.25452068 -0.089842394 -0.046890024
-0.07955227 0.10400228 0.20595212 0.046018276 -0.22462776 -0.022091277 0.21616822 -0.061699517
0.10928348 -0.06722879 -0.32152444 0.21704115 0.38716158 0.2656553 -0.3345832 -0.09929588
-0.28812984 0.058180287 -0.34429535 -0.19388862 -0.48206374 -0.18917301 0.13982812 -0.1487571
0.09982328 0.18129486 0.10120284 -0.042833485 -0.28519097 -0.09132412 0.25057408 -0.25045586
0.035061896 0.039473373 0.09699073 0.3585354 -0.18783583 -0.012960953 0.15139918 -0.36646888
-0.2842961 0.15233742 0.45285532 -0.38894817 0.10682612 0.36508483 -0.21407197 -0.35974044
-0.22932439 -0.09500532 0.23410064 0.043783862 -0.09884535 -0.35852218 -0.24752407 -0.12159907
0.16758019 0.06143527 0.27915853 -0.12187923 0.3455016 0.044687033 -0.032193765 -0.07260811
00000000: 8aee 983e 0372 99be 4113 98be 868d 9cbc
00000010: 5d19 7d3e d204 89bc 0c58 3d3e f86e 3e3c
00000020: e5f2 50be fe60 05be 0519 a73d 948d febd
00000030: be22 93be f56f 47be 6d8a 693e f133 743d
00000040: 6e6a 7fbd f4fb 6a3d d656 7ebe af8f 95be
00000050: c0a3 ab3e cc0a 373d 5972 443e 48aa 80bd
00000060: e047 49be e2ef 35be bc27 873e 8cb5 783d
00000070: 0a03 8f3e 62d2 aa3e 7217 f1bd 0f91 a9be
00000080: aabd 9e3d 2411 493c c188 e93e 4a08 343d
00000090: 55aa 1b3e e903 92bd a515 a3bd 7c35 983e
000000a0: 07d9 433d 1ace 6fbe c828 86bc 1921 04be
000000b0: f799 7b3d 7e74 14bc d69e e03e 04de 533d
000000c0: 6063 c93e 51ba fcbd 21cc 2abe a139 f6bd
000000d0: a330 2abc d4d4 e7bd 59aa 17be 66ad a53e
000000e0: 5938 1bbe 787c d6bd b9c7 96be 4ec1 d9bd
000000f0: 5b84 c6be 1d69 bb3c e778 f83c 8382 96bd
00000100: d05e ffbd ac5b b8be e3e5 9f3e e80b 70bd
00000110: 819c c5bd 401b 313e fdd2 10be 20a0 2d3e
00000120: e8d3 c6be 5783 6fbd a2a0 943e 95a4 033e
00000130: c491 84be bfe3 903d 1a39 9dbe 843b 04bb
00000140: f3d2 913e 5eec 99bd 4283 3b3e 490c ba3e
00000150: 6298 ef3c eac0 43be c581 953e e836 e53e
00000160: 0c12 c03a c2ed 9cbd 147d 26be 4af3 83bd
00000170: e1a4 acbd 9ad8 cdbd 4161 4ebe 9aed 7c3e
00000180: 8145 3dbd 0ac9 a2bd 40df 4ebe aef7 15bd
00000190: 4fa3 3bbe 1acb cabd 989e f3be 0355 5abc
000001a0: 03a1 0c3e afe2 013e 88d1 1dbe 8b97 b83e
000001b0: 43de bebe 0b20 61be 9607 edbe dd00 0cbe
000001c0: 3ac1 ac3d ac71 d63d 391b 353e 444e b03b
000001d0: ff8f 453d 2c9b 243e 42e2 8c3d e829 4dbd
000001e0: 7e51 473e e488 3f3d 9922 b2be 2e89 1e3e
000001f0: eb8a a9bd cc4a 853e b155 bdbc bfab afbc
00000200: 322f febd a83b 923d 2efd aabe 5e46 96bd
00000210: c971 88bd 48bc 93be c1c2 89be 0820 cfbd
00000220: 55e0 193e 0724 123b e1fa b6be 4f75 40be
00000230: 41f0 8b3e 84f6 88be ee7d 12be 7525 383d
00000240: d9aa 9b3c 6823 fc3d 18de e13d 8019 613e
00000250: c2b4 00bf eb67 1c3e 8ba3 39be cd0f 15be
00000260: 1e44 493e 1729 23be ae99 52be 0d47 ff3d
00000270: 2853 36bd 8ef5 e8bc ad9d ed3e 55ef 153e
00000280: 4c07 7dbd 4af7 be3c 7151 bd3d 4de4 aebd
00000290: f179 893e 9a1d bf3d 546a ac3e 2687 083f
000002a0: 0467 11bc 32a1 51bd de27 0cbe a1fa 1d3e
000002b0: b67a 8f3e dfa6 52be 1c55 8abd 7b05 383e
000002c0: 33e1 3dbe 1bf8 bcbc 7e02 90bd e37d d53d
000002d0: 62cf b3bd fd9e cf3e d711 8c3e 3759 a03c
000002e0: df10 82be 5def c93c 3cca 8c3e 91e6 91bd
000002f0: b374 713e 8950 82be 4aff b7bd c10f 40bd
00000300: 4dec a2bd 26ff d43d 1de5 523e a97d 3c3d
00000310: d204 66be c4f8 b4bc 345b 5d3e a2b8 7cbd
00000320: 04d0 df3d 3faf 89bd da9e a4be 0940 5e3e
00000330: 0b3a c63e f903 883e 7d4e abbe a35b cbbd
00000340: c185 93be 744e 6e3d 7b47 b0be bd8a 46be
00000350: 0fd1 f6be 92b6 41be 1a2f 0f3e c853 18be
00000360: 2670 cc3d 5ca5 393e 6f43 cf3d 2a72 2fbd
00000370: 8d04 92be 2408 bbbd 3f4b 803e c03b 80be
00000380: 109d 0f3d d5ae 213d 13a3 c63d f491 b73e
00000390: 0958 40be 2d5a 54bc 6308 1b3e cfa1 bbbe
000003a0: 428f 91be 57fe 1b3e a7dc e73e 3724 c7be
000003b0: a7c7 da3d 66ec ba3e af35 5bbe e62f b8be
000003c0: 03d4 6abe 2692 c2bd 14b8 6f3e b556 333d
000003d0: 6e6f cabd 3890 b7be f376 7dbe ef08 f9bd
000003e0: 249a 2b3e 8da3 7b3d deed 8e3e d19b f9bd
000003f0: 96e5 b03e c009 373d 9cdd 03bd 90b3 94bd

fc.bias f4 [4]
-0.042283252 0.12565535 -0.14972661 -0.055292036
00000000: 3431 2dbd ccab 003e ef51 19be e779 62bd
